run/PiDeeL_2layer.pth (torch_old, 22355 bytes, 3 tensors)

fc1.weight f4 [138, 37]
00000000: a1b3 2ebe ec1f dabc 3406 0080 307c 0cbd
00000010: 32d2 1039 12f3 6cba ba40 963c a493 013a
00000020: 2100 0000 92c5 b0bc aaf5 0bbe b03c e6b6
00000030: 2be0 be3e df79 963d 4fe9 e0bc 5904 0080
00000040: 3bb7 9b3d 9fcd 7836 354f 233c 098d e6b8
00000050: bff0 5f38 546c e73d d5a9 f63b 4419 a7bd
00000060: e9e5 44bc 5b6d 7307 6c12 6e31 89f5 90bc
00000070: 8664 3e24 0ffe 0fb7 a904 0000 e8ea 543d
00000080: 130f 07bd 5c79 053e f72a c13a 5632 db3d
00000090: a200 dd3d 4215 58be ba34 e53a 6ce7 22bd
000000a0: b50f c4bc 9cff 28bc fd23 6f20 a988 40bd
000000b0: 9970 333d 547c 7d3a 5960 d2ba aae1 96bd
000000c0: 534b 81bd f7ee d5ae 1e53 ecbd 504c 1e2f
000000d0: 088e e9bd d9f8 673d b6e0 ebbd 3d04 0080
000000e0: 852c f8bd a969 b437 e4ab f9bd 47e0 c824
000000f0: 054a c0bd 0e85 be39 a617 273c d475 74bc
00000100: 51fe 773c a336 e52f d809 febd 6c27 0e3d
00000110: a7de b1bd 94f6 333d 2093 8c29 68df 113c
00000120: 9e2d dc3d 579b b6bd fccd b43e 81b6 53bd
00000130: 6d67 b83d cbff 01bf 4ab7 c9bc bd06 a8bc
00000140: 673a a13e 6d01 eeba a573 f4bd 4ed1 903d
00000150: c06c c83d ab58 cebd 6d68 f53d 6338 52bc
00000160: 1230 9c3e 5a84 83be 9a25 043e b5f6 81be
00000170: 8765 81be 18a9 1dbd 7135 00bf 6758 d93c
00000180: 7d53 5d3e aa5a a2bd efd8 b33e 241f 81bb
00000190: 2eeb 093e a2bb 8a3b 40a3 13be 3d2e 8a3e
000001a0: 80f4 86bd a9ba 0bbe c19f 313e f550 3a3d
000001b0: 48ee a9be bfb1 7cbe ff75 b63d 039a 0430
000001c0: c4b5 2a3e cfa5 2032 fa6f 40bd a669 e43c
000001d0: 5600 8f3d de9b d73d ca3d d238 348c bda8
000001e0: 6aff 74bd f98a fd3d 87e7 023e 9809 c73e
000001f0: ee9a aabd 0719 4a3d e404 6cbd 230d 5eb2
00000200: 2aae a23d 0128 2fbd 7494 3d3d 54ca 773d
00000210: 3f8f ccaf 0fc8 b682 adf9 b1bd da24 a62d
00000220: 5402 a93a 7b9f b234 4af1 b63c 9a15 c333
00000230: 2a36 72bd d526 1780 96b6 413b 2805 0080
00000240: 4bdb 563d b6ae 92bb d74c e9bb a15b c1bd
00000250: 8fcc e839 bf75 11be edf6 cf3d 43b6 043e
00000260: bdfa 703c 6579 a03d 21d3 eb84 e935 f3bc
00000270: 1577 b2bd 650e de29 93c7 ddbd eed7 073e
00000280: d4b8 703d 8b01 cd28 90c2 203a b7d5 5635
00000290: e402 0000 a576 bd3c b414 69b3 2a62 5993
000002a0: cc9a 683d 8063 bd3d 3d22 833d 847d 1da8
000002b0: 0ec8 c9bc f326 e13c 8bbe edbc 1219 b3bd
000002c0: 1bc4 4c2d 2cba 5a3a b31b adbd 120f fd3d
000002d0: 6505 0080 f104 0080 6175 37bc 7081 91bc
000002e0: 6acc 7c3d 0879 093e dd3d 123a 0c7a 373c
000002f0: 438d adbe ffd0 df3d 5eb2 8a3d 0cc1 53b9
00000300: f32b 00b7 eb5b da32 d1c8 563c 96d8 c4bb
00000310: 606e 2d3d bb23 b03d ce22 bcbe 5a08 0000
00000320: ed5e bbb9 4311 0000 13ef 21bd 2cb4 a3be
00000330: 7cd5 9fbc 2e3b 06be 4b5e 4cbc 8333 063e
00000340: f000 0080 1254 29ad 5af8 58bc b9c2 27bd
00000350: 9102 0000 0674 f23d 2eb6 2538 738b c709
00000360: 9b05 0000 912d c02d 67a5 02be 713e 453e
00000370: 3bd5 af38 af33 adb6 9090 c13d cf2f 313b
00000380: 250c d8bd 45cc d4b9 f8a6 6a3d dc0b 4d3d
00000390: e5f6 a23c 1242 9e3d 2716 8a3c 4ede 143e
000003a0: 0b9b b53d 917d cd3d 3ffe 85ba 8bb3 870b
000003b0: 3d54 d0bd 444b 483c 5915 633d efc0 d3be
000003c0: a2ee d2a6 64db 1cba bf74 15bb a8b5 028f
000003d0: 2888 333d 558e 933b b89e d439 05c5 d23d
000003e0: 054e 77bd 7772 433d 792e 5a3c e497 9238
000003f0: ad59 f3bd 21ab 25bd 9bee 2c3c 5d30 9938
-0.1706071 -0.02662655 -2.225e-42 -0.034298122 0.00013811214 -0.0009038906 0.01834141 0.00049429596
4.6e-44 -0.021578584 -0.13667932 -6.861599e-06 0.37280402 0.07347464 -0.027455 -1.56e-42
0.07603308 3.7074567e-06 0.009967615 -0.000109935245 5.3391555e-05 0.11299959 0.00752757 -0.08159116
-0.0120177055 1.8313425e-34 3.464403e-09 -0.017695205 4.128483e-17 -8.582617e-06 1.672e-42 0.051981837
-0.03297336 0.13034576 0.0014737536 0.1070296 0.10791136 -0.21101859 0.0017487027 -0.039771482
-0.023933271 -0.010314848 2.0255995e-19 -0.04700533 0.043808553 0.00096697104 -0.0016050442 -0.07367261
-0.06313195 -9.728567e-11 -0.11539291 1.4397128e-10 -0.114040434 0.056633804 -0.115174696 -1.52e-42
-0.121178664 2.1506874e-05 -0.12190989 8.7116114e-17 -0.09389118 0.00036338757 0.010198509 -0.014920671
0.015136317 4.169368e-10 -0.12404221 0.034705564 -0.08685046 0.043936327 6.242771e-14 0.008903362
0.10750888 -0.089163475 0.35313404 -0.05168772 0.09004102 -0.50780934 -0.024623532 -0.020511026
0.3148987 -0.0018158384 -0.1193612 0.07071172 0.097863674 -0.10075506 0.11982808 -0.012830826
0.30505425 -0.25686914 0.12904969 -0.25383535 -0.25272772 -0.03849134 -0.50081545 0.026531411
0.2161388 -0.07927449 0.35126445 -0.00394048 0.1346862 0.0042337934 -0.14417744 0.26988402
-0.065896034 -0.13645424 0.17346098 0.045487363 -0.33189607 -0.2467718 0.08909225 4.8240184e-10
0.166709 9.350926e-09 -0.04698179 0.027882408 0.06982486 0.10527776 0.000100250894 -2.1044019e-14
-0.059813894 0.123800226 0.12783633 0.38874507 -0.08330332 0.049340274 -0.05762185 -1.2925088e-08
0.079433754 -0.04276276 0.046284154 0.06049569 -3.7209166e-10 -2.6857324e-37 -0.086902 1.888838e-11
0.0012894371 3.327112e-07 0.022331852 9.0843244e-08 -0.059133686 -2.126147e-39 0.0029558293 -1.85e-42
0.052455228 -0.0044763936 -0.0071197557 -0.09441305 0.00044402896 -0.14205073 0.10154519 0.12960152
0.014708218 0.07835654 -5.5442126e-36 -0.029688792 -0.08714119 9.8612775e-14 -0.108290814 0.13265964
0.058770016 2.2760241e-14 0.00061325077 8.003221e-07 1.037e-42 0.023127863 -5.426837e-08 -2.743765e-27
0.05678825 0.09247494 0.06403015 -8.742468e-15 -0.024631526 0.027484393 -0.029021522 -0.08745016
1.1639602e-11 0.0008343782 -0.08452549 0.1235639 -1.935e-42 -1.773e-42 -0.011197419 -0.017761916
0.061718382 0.13425076 0.00055786764 0.011198532 -0.33896837 0.10928535 0.06772302 -0.00020194444
-7.639627e-06 2.542034e-08 0.013109402 -0.0060072644 0.04234159 0.08600565 -0.36745304 2.996e-42
-0.00035738145 6.192e-42 -0.03953464 -0.31973398 -0.019510977 -0.13108513 -0.012473653 0.13105588
-3.36e-43 -9.625205e-12 -0.013242805 -0.040957186 9.2e-43 0.11838536 3.9508734e-05 4.8038645e-33
2.011e-42 2.1848108e-11 -0.12758408 0.19262101 8.3843675e-05 -5.1618185e-06 0.09451401 0.0027036553
-0.105491914 -0.00040587984 0.05728814 0.050060138 0.01989312 0.07727446 0.016856266 0.14537928
0.08867463 0.100337155 -0.0010222866 5.2270255e-32 -0.10172317 0.012224976 0.05544028 -0.41358134
-1.4636359e-15 -0.00059836195 -0.0022805182 -6.4444806e-30 0.04383102 0.0045030513 0.00040554046 0.10291485
-0.06037714 0.047716584 0.013316744 6.990114e-05 -0.11882339 -0.040446404 0.010554935 7.304617e-05

fc1.bias f4 [138]
00000000: 179b 743e cc58 c1bc 339b 333e f94c af3d
00000010: df3e dd3d 8cea f1bd b954 c7bb 6154 b8bb
00000020: 2f2c 593d e9f4 943c de8e 7ebc 9bf5 1bbd
00000030: 0698 503a 8c65 953d a7b6 473e 938b 663c
00000040: fa2e 02be de5a 633d cbf2 f83c 70be 57bc
00000050: f65d 8e3d ee52 fbbd 9856 483e 32dd ff3d
00000060: b3c5 123c 8658 533d f6bd d0bb f6a6 00be
00000070: 41e4 e63c 1b9f a53d acba a23c c06b a33d
00000080: fcd3 a33b e6de a7bc a47b 9f3c 1fbd 6bbd
00000090: ac5e aa3d da17 ae3d fa49 913e 214b e3bb
000000a0: 0f8c b8bd bf9e 813c 2406 8cbc e89a e63d
000000b0: 02d4 c63c a3c7 73be 79ea 45bd 6167 a03b
000000c0: f0d4 243d 7726 fd3d f292 a03c 2e8f 1cbd
000000d0: 7a26 a0bd baf4 f93b a208 d53d 5cd4 d9bc
000000e0: 947e c0bd a87b 0bbd b66d 833c 71f5 02bd
000000f0: d127 4a3e a5ca 343e 51eb 2cbc 3487 2abd
00000100: 782f 0dbc 9a5e ebbd b66f 87bc 80f2 f03d
00000110: 1894 aabd a257 96bd 2285 e0bd 1dc0 74bc
00000120: 5d6b b33d 719a 31bd 8096 b1bd b5ab a9bd
00000130: f1b6 90bd 8c07 7dbd 1170 2a3e ced8 593d
00000140: 34ad 2f3e 38eb 65bd 6444 b73c 6a91 013c
00000150: d11e 033c c2c8 4fbe f284 a03a 36fa 203e
00000160: 29d6 103e ca2a 023c 9299 e83b a76e fabb
00000170: 6ace e43b 9af3 263d d3ed 383e a903 263c
00000180: d940 253e 9f36 513d 2452 2f3c cb9b 693c
00000190: d57d 9c3c 0725 9dbc fbf8 573d 19de 313d
000001a0: bff3 e9bc 9bda 3b3b 0839 6d3d ace8 b8bc
000001b0: 6c14 0cbd 6fb0 2fbc bb79 e03d f996 cebd
000001c0: 253b 6bbd 6ff2 a13c 1d00 b63d ff26 d83d
000001d0: 3388 253e 77df adbc c250 abbc 3a02 f33a
000001e0: c599 9c3e 1606 b73d af5a d93d 18f2 d43d
000001f0: 975c 193e 00fb 54bd 7a65 353e f549 eebd
00000200: 90b7 e8bd 3116 0f3e 716a ecbd 15f1 f73c
00000210: 8511 1b3c 4b46 beba d57c 1dbc 895b c83d
00000220: 0367 4d3d 36ac 583e
0.23887287 -0.023601912 0.17539673 0.08559603 0.10803007 -0.118123144 -0.006083098 -0.005625293
0.053020652 0.018183189 -0.015536992 -0.038076025 0.00079572236 0.07294759 0.1950327 0.014071363
-0.12713233 0.05550658 0.03038921 -0.013167962 0.069515154 -0.12271677 0.19564283 0.124933615
0.008958268 0.051598094 -0.0063703014 -0.1256369 0.028185012 0.080869876 0.019864403 0.07979536
0.0049996357 -0.020492028 0.019468136 -0.057553407 0.083188385 0.08500643 0.28376752 -0.0069364463
-0.09011089 0.015822766 -0.017092772 0.11260015 0.024271015 -0.23806624 -0.048319314 0.004895136
0.040242136 0.12360852 0.019601319 -0.038222484 -0.07819839 0.0076280506 0.10402037 -0.026590519
-0.09399143 -0.034053475 0.016043525 -0.031972352 0.19741751 0.17655428 -0.010554151 -0.041632846
-0.008617274 -0.11492653 -0.01653276 0.11765003 -0.08329028 -0.073409334 -0.10962893 -0.0149383815
0.08760712 -0.043360177 -0.08671284 -0.08284704 -0.07066143 -0.061774775 0.16644312 0.053185277
0.17155915 -0.056132525 0.022371478 0.007908205 0.008002953 -0.20291427 0.0012246652 0.15720448
0.14144196 0.007944772 0.007098385 -0.0076425853 0.0069826143 0.04075966 0.18059473 0.010132709
0.16138019 0.05107748 0.010700736 0.014258335 0.01910297 -0.019182695 0.05272768 0.0434247
-0.02855861 0.0028664235 0.057915717 -0.022571884 -0.034199163 -0.010723217 0.10960718 -0.100873895
-0.05742945 0.019768922 0.0888674 0.10554313 0.16165237 -0.02122472 -0.020912532 0.0018540092
0.30586067 0.08936708 0.10613 0.10397738 0.14976726 -0.051997185 0.17714491 -0.116352
-0.11363137 0.13973309 -0.115437396 0.030266324 0.009464626 -0.0014516799 -0.009612282 0.09783084
0.050147068 0.21159443

fc2.weight f4 [1, 138]
00000000: fec2 5e3e 4668 253d b503 7bbe 5646 c03e
00000010: c106 783d d977 97be ce81 81be 3340 263c
00000020: 3f68 82be c8df abbe 02c8 a83e 6191 f43d
00000030: 35ed 0ebd cc18 c53d 27b5 a3be df0d 8e3e
00000040: 2095 903e 6afe 293e 2659 70be 8dc5 8bbd
00000050: c90a 033e 6bb7 dfbe a74e 41be 38c8 b33e
00000060: d559 25bd 1f2f 99be 49da 163e 727b 023f
00000070: c6d6 a23e 5090 95be 6e3c ebbd dd29 c8bd
00000080: f5f2 db3e e059 adbd 2607 b73e 9740 0ebd
00000090: 8428 b2bd 9665 b3be c3d7 82be b099 d1bd
000000a0: e322 5a3e 6241 963d f5ce 62be 7720 8abe
000000b0: 0305 78be 1933 bebe 1e32 873e 0c1c 4a3d
000000c0: c1ce c73e 6188 8abd fda4 d33e ecb2 6d3e
000000d0: 63ac 8b3d 0324 09bd 5fc3 14be 5a39 1b3e
000000e0: 49d2 95bd dd28 17bd 3766 cc3c f3b0 8a3d
000000f0: 892a 4abe f383 71be 2eda 8d3e 0504 853e
00000100: e1f4 ad3d 12b0 95be ed94 d43d 3949 8e3e
00000110: e724 70be a217 35be 3309 803d f449 2c3d
00000120: d774 5f3d 423c a5be 7508 763d e859 37bd
00000130: eeb9 e23d 0ff6 ed3d 5829 ac3e 2606 8f3d
00000140: afea 7dbe 31d7 64be ba96 363c b2a8 f63d
00000150: cb77 033e 2f91 95be f585 443c d250 43be
00000160: 6735 54be 9a37 84bc 51a3 e93d 7987 df3c
00000170: 90eb e03d 4e90 82bd 6508 62be 3b15 223e
00000180: 1ff6 57be 2de6 673e 6776 a43e d737 9d3e
00000190: 2e29 5ebe a1d6 d33d 2c06 14bc c6b8 88bb
000001a0: 68ea ce3c 8af7 8e3c 3f75 cfbd 90ff 45be
000001b0: bdf9 d83d acd1 efb8 879a e43d 388f ae3e
000001c0: 3217 7fbe 565f b2bd 6c40 bdbe b82e c3be
000001d0: 7f18 363e 5183 4abd 95a5 ccbd c20c bd3c
000001e0: c25d c7be 0fca 45bd b2f3 f5bd 9711 9dbe
000001f0: bbb2 b33e f957 bc3b 3df7 423e adc9 ea3d
00000200: 561f e33d ab03 a53e 8763 123e b2dc 463d
00000210: 01a4 51be 50e3 59bd 3483 4abd 9250 a73e
00000220: 180c dabe 7aee ab3e
0.21754071 0.040382646 -0.24513133 0.37553662 0.060553316 -0.29583624 -0.25294346 0.010147142
-0.25470158 -0.3356917 0.32965094 0.11941791 -0.034894187 0.0962387 -0.31974146 0.27744958
0.28238773 0.16600958 -0.23471507 -0.06824789 0.12797083 -0.43694624 -0.1887766 0.35113692
-0.040368874 -0.29918763 0.14731707 0.5096961 0.31804484 -0.29211664 -0.114861354 -0.0977361
0.429588 -0.08464408 0.3574764 -0.034729566 -0.08699134 -0.3503844 -0.25555238 -0.10234392
0.2130237 0.073366895 -0.2214926 -0.26977894 -0.24220662 -0.3714836 0.26405424 0.049343154
0.39024928 -0.067642935 0.41336814 0.23212785 0.068199895 -0.03348161 -0.14527653 0.15158597
-0.07315499 -0.036904205 0.024951084 0.06772032 -0.19742788 -0.23585491 0.2770552 0.2597963
0.084939726 -0.29235893 0.10379968 0.2779024 -0.23451577 -0.17684796 0.062517546 0.042062715
0.054554787 -0.32272536 0.06006666 -0.044763476 0.110706195 0.116191976 0.33625293 0.069835946
-0.24796556 -0.22347714 0.011144334 0.12043895 0.12838666 -0.2921233 0.0119948285 -0.19073799
-0.20723496 -0.016139794 0.11408103 0.027286278 0.1098243 -0.0637518 -0.22073515 0.15828411
-0.21089981 0.22646399 0.32121584 0.30706665 -0.21695396 0.103436716 -0.009034675 -0.0041724173
0.025258258 0.01745202 -0.10129785 -0.1933577 0.10594509 -0.000114354625 0.11162286 0.34093642
-0.24911192 -0.0870959 -0.36963212 -0.3812158 0.17782782 -0.04944164 -0.0999252 0.023077372
-0.3893872 -0.0482884 -0.12009372 -0.30677482 0.35097298 0.005747792 0.19039626 0.11464248
0.11089961 0.3222936 0.14295779 0.048550315 -0.20472719 -0.053195298 -0.04944153 0.32678658
-0.42587352 0.3358038
