run/PiDeeL_3layer.pth (torch_old, 57904 bytes, 5 tensors)

fc1.weight f4 [138, 37]
00000000: 2fb5 e03e 0b1f 8c3e 3165 7abd 352c 9d3e
00000010: 4727 18be f24f 973e 364a 9abc a823 c4bd
00000020: bb97 34be 8acd d1bd 46aa 05be b999 abb9
00000030: ccc8 85be 9626 94be 9481 1e3d 9e8f 1f3e
00000040: b2cb 3ebc f502 4c3e a84f 5d3d 35b2 a53d
00000050: edf9 abbd aa7b 09bd 8371 03be 29f1 893e
00000060: b113 a23b 50c4 b4a2 e871 79be 8751 a23e
00000070: 18c9 883e 4fe9 63be b9c1 c19d a2e0 89be
00000080: acb6 86be d242 609a 42a1 17bb 4fe4 153e
00000090: 7f67 12be 107f 97bd 3590 e43b 3333 eabc
000000a0: 7909 123e b760 9bbe f5f7 4a3e a1f3 91bd
000000b0: ed7e babc b261 84be 266e 813b a4ca 94be
000000c0: ae86 293e 939c 27be 06de 793e e1b7 c1bd
000000d0: 32ed 14be 8d45 783e fb41 71be 92a9 a43e
000000e0: 3caf 0b3e 9e0b a3bd 8635 b7bd 2f55 9d3e
000000f0: 4dfd a4be 83b2 09be a915 85be 1e9e 803e
00000100: 457a 563e 66e8 713d 9fa7 ebbc e957 2937
00000110: 9ddd 073e aa5a 3ebd ec38 5a3b 0d26 443e
00000120: 486b 65b0 86eb d63d 233b 0dbd 2520 953e
00000130: 77cd b5be 7f8d 9bbe 8491 3b3e 1ebb cebe
00000140: 8347 b3be 0b7e a0be ee99 e7be af40 393e
00000150: 74bb 94bd 9462 afbe b25e 8dbe 25c5 a9be
00000160: 0278 bbbd ccaf ab3d ca84 90be ed29 aabd
00000170: 6252 9bbd bb52 1a3e b27e ca3e 69dc f13d
00000180: 3334 abbe fc3b 223e 7935 a4be 4f3f bfbb
00000190: 035f 46be 2fe5 6e3e 9250 24be 8669 903e
000001a0: b536 573e 5243 813e bfe4 433e 98d8 223e
000001b0: 9a73 ce3e 731a 11be 5626 313e 39f8 083d
000001c0: 6578 60be ccdc 9c3e 338c 433d ccb3 8b3d
000001d0: 05ed a33d 1437 1bbd 6538 9cbd 917f 30be
000001e0: 8a58 4038 2002 a03e 832c da3c d3aa dc3d
000001f0: 1388 243e 2930 53bd 98fa 8bbe 8937 6d3d
00000200: 39dd 493d 4445 8d3d 9d35 9a3e cb5d 253d
00000210: b2b5 19be a76f fabb 04fe 383e ac87 8dbd
00000220: 9159 fb3d ffe3 8e3e eac6 cbbe b9b1 9bbd
00000230: 437c 06be 88aa 02a4 29bb 7dbd d549 9ebe
00000240: e16f 073e 4144 903e 73a4 9b3e 7e01 0a1d
00000250: 945e 763e f896 083e 445d ccbe 7f23 9b3a
00000260: 68ad 9a3e e684 313d 6ddf e7b5 4fa9 923d
00000270: 6291 54bc c1d6 40b0 648e 1e3e 5765 873e
00000280: 9751 3e3e 9dee 3a39 0b6f 9d3e 9741 d3bd
00000290: 57c6 363d 23c6 94bc e463 283e 317b 033e
000002a0: 74c8 44be 613a d8bd df74 37be d258 183e
000002b0: 91f6 8eb7 1f07 d61a 1b74 a33d 8fd2 eb3d
000002c0: d166 8f3e 7781 993e 5de7 ce2f 2f2e 383a
000002d0: ca4e 703e 573f 893c bb0f 373e 3cfd 9a3d
000002e0: 0a5e 06bc e218 9fbe 2c55 ccbc 8d57 c23e
000002f0: 185b 94bc 30dc a4be 1ee8 efbc f8ec a1be
00000300: ed82 11be 7616 d0bd c477 323e 1da1 293b
00000310: 51a9 063e 6c64 173e 34da 67be 7a6f 16be
00000320: 8143 dd3c 3ea1 eb3d a553 e436 624c 4fbe
00000330: d535 8a3e 28e4 e6bd f496 933e c0ca f33c
00000340: f697 563e 857d 7939 a583 5637 a06e 183e
00000350: 7f5b 533c 526e 9c3e c1ab 84bc a325 b63a
00000360: 4cf3 45be 289b 05a8 814b 1d3e ada1 51be
00000370: f899 d03d 3b5a 993e d534 4033 a7ba a2be
00000380: ae39 233e 055f 6c3e 6df7 8e3e 5d7e 233e
00000390: 9815 893e c16e 8ebc ce40 d93c f543 723e
000003a0: 6fd0 92be 531f 263a 8640 d63d 3b59 7e3e
000003b0: 7b2a d8b6 fbe2 773d 8c34 7539 9839 ab3c
000003c0: 97a5 81be 45fd f63c 9a4e abbd 265b ba3c
000003d0: 935f 5abe 39ca 8b3e 4146 41be 562b b73d
000003e0: 54d8 44bd 403b 179f a800 d53d 98c2 603e
000003f0: b061 193e 7d94 833e bda9 28be 793b 32be
0.43888232 0.27367434 -0.06113166 0.3069779 -0.14858733 0.2955318 -0.018834215 -0.095771134
-0.17636006 -0.102442816 -0.13053235 -0.00032730194 -0.26129758 -0.2893569 0.038697794 0.1558213
-0.011645244 0.19923003 0.054031044 0.08090631 -0.08397279 -0.0335652 -0.1283627 0.26941803
0.004946195 -4.899695e-18 -0.24359858 0.31702825 0.26715922 -0.22256969 -5.128698e-21 -0.26929194
-0.26311243 -4.637609e-23 -0.0023136889 0.14637874 -0.14297293 -0.07397282 0.0069751986 -0.028588867
0.14261426 -0.30347225 0.1982115 -0.07126547 -0.022765601 -0.25855786 0.0039498983 -0.29060853
0.16555282 -0.16368322 0.24401101 -0.094589 -0.14543608 0.24245282 -0.23560326 0.32160622
0.13641065 -0.079612 -0.08945756 0.30729052 -0.32224503 -0.13447003 -0.25993088 0.25120634
0.2094508 0.059059523 -0.028766451 1.0093653e-05 0.13268133 -0.046473183 0.0033298088 0.1915514
-8.346217e-10 0.10494141 -0.034480225 0.29126087 -0.3550832 -0.3038139 0.18317229 -0.40377134
-0.35015497 -0.31346163 -0.45234627 0.18091081 -0.07262316 -0.34254897 -0.2761131 -0.33158222
-0.09153749 0.0838314 -0.2822631 -0.08308778 -0.07584073 0.15070622 0.39549786 0.11809618
-0.33438262 0.15843195 -0.32072046 -0.0058364044 -0.19372182 0.23329614 -0.1604636 0.28205508
0.21016963 0.25246674 0.19130228 0.15902936 0.40322572 -0.14170246 0.1729978 0.03343985
-0.21920927 0.30637205 0.047741126 0.06821403 0.08004192 -0.037894323 -0.07627944 -0.17236163
4.5858826e-05 0.3125162 0.026632553 0.1077477 0.16067533 -0.0515596 -0.27339625 0.05791429
0.04928324 0.06897977 0.3011903 0.04037265 -0.15010718 -0.0076427045 0.1806565 -0.06910643
0.12272943 0.27908322 -0.39800197 -0.07602257 -0.1313334 -2.8333702e-17 -0.061946068 -0.30915704
0.13226272 0.28177074 0.30398902 1.826492e-21 0.24059516 0.1333884 -0.39914906 0.001183614
0.30210423 0.043339632 -1.7275867e-06 0.07161199 -0.012974115 -7.0154377e-10 0.15484005 0.26444504
0.18585812 0.00017827233 0.30748782 -0.10315245 0.044622745 -0.018160885 0.16444355 0.12839963
-0.19217092 -0.1055801 -0.17915677 0.14877632 -1.7042536e-05 8.851983e-23 0.0798113 0.1151477
0.2800813 0.29981586 3.7635575e-10 0.0007025925 0.23467556 0.016753836 0.17877094 0.07567832
-0.008201132 -0.31073672 -0.024942957 0.3795742 -0.018109843 -0.3219924 -0.029285487 -0.31626105
-0.142101 -0.10160534 0.174285 0.0025883385 0.13150527 0.14784402 -0.22641832 -0.14690962
0.027009727 0.11505364 6.804667e-06 -0.20243981 0.26994196 -0.11273986 0.28826106 0.029759765
0.20956406 0.0002379325 1.2786045e-05 0.1488595 0.012900232 0.30552918 -0.01619518 0.0013896715
-0.19331092 -7.416627e-15 0.15360834 -0.2047183 0.10185617 0.29951653 4.4751534e-08 -0.3178303
0.15939972 0.23083122 0.27923146 0.15966173 0.26774287 -0.017386796 0.02652016 0.23658736
-0.28674647 0.0006337065 0.104615256 0.24838726 -6.442247e-06 0.0605192 0.00023384596 0.020901486
-0.25321648 0.030150065 -0.083646014 0.022748541 -0.21325521 0.2730272 -0.18874456 0.089438125
-0.04805787 -3.2024504e-20 0.10400516 0.21949232 0.14978671 0.25699225 -0.16471 -0.174055

fc1.bias f4 [138]
00000000: cf90 3e3d 0026 85bc d023 59bc 5cb0 f03c
00000010: 5b64 1a3d 72e0 b5bc e473 463d e437 233d
00000020: 8f72 75bb 253a f83c d50c 213d bfca 883d
00000030: d3ce 88bc 21a2 823d 7274 b63d bbe8 3c3d
00000040: 5299 a03b 2f88 27bd d00c 853d 3f81 2bbc
00000050: 6d8b ba3c b1f1 25bd af0b 57bd c9d9 1eb9
00000060: 13d4 433d d5d4 2abd b157 4bbd fbac 77bc
00000070: 395a eebb f237 f23c 606f 413d 9a09 5f3d
00000080: 3833 72bc 1b99 063d d0a8 883d 3f06 da3c
00000090: 9125 b23d fbcf 67bb 37dd 763d 2ad2 93bc
000000a0: 6c6e f83c 07b2 adba 27f0 9d3d 02a0 c8bc
000000b0: 10a2 483d 2e02 db3b 630d 2a3d 46b2 5e3c
000000c0: bd43 5a3d 00dd b83d 4e70 193c b479 20bb
000000d0: 81d4 8f3d bf97 733d f496 173d 6853 103d
000000e0: c068 4e3d 99d7 4a3d cf57 843d 4dc5 843d
000000f0: 9c49 5a3d 319f 983c 40b1 ef3c 230f 9f3c
00000100: 8ef9 303d 020d 79bc 5149 b23d cd53 8a3d
00000110: a6bb b93d 796a 47bc 0504 02bc 0fea 9f3c
00000120: 0165 12bc e3cf e93c 475e 683d 2af5 063d
00000130: 3889 573b ecbb 48bb 6659 7e3d f24b 35bd
00000140: 23ba 03bd 9608 babc 3874 37bc d951 ae3d
00000150: 06f4 963d eb9f 403c cb88 583d 0164 053d
00000160: edf8 003d 2d65 3b3d a22d 28bd 0d02 b23d
00000170: 0934 483d 2db0 813d bc50 77bc 2414 9b3a
00000180: 136b a33d 6b5b 5d3d 4c95 293c 9c12 783c
00000190: c891 923b a52b d03c 4d5d 553d 7597 293d
000001a0: 0e52 843d a0e4 963d bffd 483d 8c32 8b3d
000001b0: 1f1a 173d f3a4 a83d ba0b 203d 16ff 1dbd
000001c0: 6cc5 763d 8381 8b3c 4d37 923d 07ac ba3d
000001d0: 39fa 983d 99f6 f23b 7ee5 4e3d 9679 503d
000001e0: 8c1b 5b3d 93d6 9f3d 1315 b83d ae7d 0ebc
000001f0: 77e8 9f3c ede8 8c3d 12fe 6b3d 405d 2e3d
00000200: d181 3e3d 6259 3f3d 2087 6b3c 0a31 c0bc
00000210: 73f4 fb3c c51e c53d 73f4 cb3a 377e 3a3d
00000220: 44a2 aa3c d899 d53c
0.04652482 -0.016253471 -0.013253167 0.02938097 0.037693363 -0.02220175 0.048450366 0.039848223
-0.0037452315 0.030301163 0.03931888 0.06679296 -0.016700184 0.0637858 0.08908929 0.046120387
0.0049010897 -0.04090136 0.064965844 -0.010467826 0.022771562 -0.040513698 -0.052501377 -0.00015149185
0.04780967 -0.04170688 -0.049644176 -0.015116925 -0.007273939 0.029567692 0.047225356 0.054452516
-0.014782719 0.032860857 0.066728234 0.026614306 0.086985715 -0.0035371769 0.06026956 -0.01804455
0.03032609 -0.0013251909 0.07711821 -0.02449036 0.04898268 0.0066836094 0.041516673 0.013592308
0.053287257 0.090265274 0.009365154 -0.0024486603 0.07022954 0.05947089 0.037009194 0.035235792
0.050392866 0.049522016 0.06462061 0.06482945 0.053292856 0.018630596 0.029259324 0.019416397
0.043206744 -0.015200855 0.0870539 0.06754265 0.09068994 -0.012171381 -0.007935529 0.019520788
-0.008935214 0.02854151 0.056730535 0.03294865 0.0032888185 -0.0030629588 0.062096976 -0.04426188
-0.032159936 -0.022709172 -0.011197142 0.08511705 0.073707625 0.011756877 0.05286483 0.032566074
0.031487394 0.045750786 -0.041059144 0.086917974 0.04887775 0.06332431 -0.015094932 0.0011831564
0.07979407 0.05404226 0.010350537 0.015141156 0.004472945 0.025411436 0.05209093 0.041404206
0.06460963 0.073678255 0.049070116 0.067967504 0.036890145 0.082345866 0.039073683 -0.038573347
0.06024687 0.01702953 0.07139454 0.09114843 0.07469601 0.0074146506 0.05051183 0.050897203
0.053493068 0.07804599 0.089883946 -0.008696957 0.019520028 0.068803646 0.057615347 0.0425694
0.04651052 0.0467161 0.014375478 -0.023460884 0.03075621 0.096250094 0.0015560522 0.045530524
0.020829327 0.026074335

fc2.weight f4 [64, 138]
00000000: 1584 c3bd 2963 19be cc57 583e e17d 19bd
00000010: c88f 4c3e 31b5 003e c114 a5bd 64ed 133e
00000020: 5a52 043e d112 c4bd 0bae 2fbe e052 4d3e
00000030: 7223 543d 27ea 1abe 3c10 09be 0eed 4cbe
00000040: 9be8 063e e8c8 32bd fd27 743d 8cf7 d83d
00000050: 6cf3 343a 153e d23d f358 67be 9ce0 82bc
00000060: ccf6 353d 6e08 0bbe 5b37 d83c 47a9 5bbe
00000070: 8ccd 4b3e e2f8 5f3e 790f 653d b182 473d
00000080: 0aed d6bd b4ca b53d 267f 43bc 9fae 023e
00000090: c8e1 f83d 5bdc 003e df88 5cbe aebc e43d
000000a0: 8313 03be 3516 193e 9c94 6c3e a802 4ebc
000000b0: e4c0 b7bc 3096 fa3d 4296 073d 756b 2fbe
000000c0: 48e6 11be 41ba 56be 8c97 8f3d 0cfc 06be
000000d0: c88f b73c 5394 48be faf1 2ebc 1e3a e73d
000000e0: 1c2d 293c 1e21 05be 79f2 89bc 45f5 063d
000000f0: e3dd b83d b7c3 16be 38b2 f43b 6f69 3c3c
00000100: e16e 4dbe 79ac 07be dba9 af3d 8744 55bc
00000110: c265 ccbb a5c3 2c3e 38ae 2b3e 9397 02be
00000120: 1e91 06be 6a4f 3e3e cad3 37be 5b1c 543b
00000130: e2a9 95bd a6dc 043e fcc0 9cbd 5d26 61bd
00000140: 6665 1ebe 617c 183e b328 b33c 0c5a 60bc
00000150: 92b6 ef3d bcb5 b93d 4d65 183e b04c 8bbd
00000160: 3794 95bd 6b20 bd3c 17fe 833d 4c73 103c
00000170: ffb5 6e3d b477 cd3d 9267 1dba 2578 33bc
00000180: dbfc 92bd 6b7c 4abe 7342 23be d880 57bc
00000190: 530e 38be 6692 aabd 4dfc cebd 7baf 8e3c
000001a0: 0089 683d 4647 f03d ea13 563d 9e6c 97bd
000001b0: b01c d13d ec15 b8bc 1fb0 ab3d b9e1 63be
000001c0: a18f 4c3e 109c 0dbd 8511 923d 0757 573c
000001d0: cecf 0dbe e743 353e c9ea 003d 0e09 333d
000001e0: 503e b63d 6976 78be fbf9 07be 661b c7bd
000001f0: 3f4a 5bbd 472d 1b3e ba7c df3d 51d3 50bd
00000200: 8bb2 ee3d 4307 193e 3b8c 2f3d b8dd a33d
00000210: 58c5 273e 46c9 99bd 95c3 9a3d 9b1f e2bd
00000220: f868 68be c888 843e 052c 6bbd 910c 803d
00000230: 88e3 67be fa94 053d 5edb f1bd dfed c7bd
00000240: d2d0 95bd 4c6c 0d3d a6c4 c43d b00d 14be
00000250: a780 763d 61c5 613d 3723 25be 0c14 2e3e
00000260: 535c 6bbc 3d62 3ebd 7e36 83bd da71 64bd
00000270: b0f8 67be 5c15 543d 38ad 633c cfd4 ddbd
00000280: c72c 113e 5229 653e 381c cebd 869a a43d
00000290: 31ee d3bd 3cc5 46be 37a6 5c3d 59e8 503e
000002a0: 97dd d73c f788 11be 6ea6 283e 6659 6ebd
000002b0: 37d7 e63d 3a0c 08bd 73fb f8bd 6e9a dabd
000002c0: adaa 293d 48f7 8cbd ca06 62bd d974 93bd
000002d0: 6d19 33bc 571a 1e3e 2205 ee3c 7d05 ebbd
000002e0: b66e 27bc 81a2 03be 3bcc 8bbd 9986 1dbd
000002f0: 282a 083e c81c 243e 9d74 b53d 2eef 1c3d
00000300: fa57 963d a750 2c3e 5a72 9dbd 9f39 4e3c
00000310: 6b14 743e db0e e4bd 256f 2dbc 4b55 12be
00000320: 16d3 3b3d e849 01be 0782 e7bd faf9 dc3d
00000330: ed9a 58be a211 253e 9a58 193e 2c92 3ebd
00000340: 92ff 263e 2e6e b3bd f8c5 0b3d dbce 53bd
00000350: 2d59 093e d280 103e bd4a 14be 71ae 713c
00000360: 45f1 653d 4893 6dbd b528 05be d30f 30bd
00000370: de12 ab3d ffb5 673e c633 15bd 6681 d73c
00000380: 05d2 bc3d a631 b2bc c597 fe3d 5a47 0c3e
00000390: 4f18 f6bc 69ab 70bd a9fc 05bd d522 273d
000003a0: 00dc 09bd 3abc 77bc 314f 08bd f518 bd3d
000003b0: 4ee0 1a3e 37a9 b53d 9781 bcbd be46 18bc
000003c0: f1d8 033e a4d1 103b 418d 343d e95d afbd
000003d0: 2d21 e43c 185b cbbd 35af ba3d c757 a93d
000003e0: c429 1b3e 4fac e33c 5411 9e3d 6ba0 9abc
000003f0: 4c38 70bd 9320 76bd 547c 58bb f9e9 dcbc
-0.09546677 -0.14979233 0.21127242 -0.037473563 0.19976723 0.12569119 -0.08060599 0.14446026
0.1292204 -0.095739014 -0.17156236 0.20051146 0.051791616 -0.15128385 -0.13385099 -0.20012304
0.1317467 -0.04364863 0.05960845 0.10594091 0.0006902728 0.102657475 -0.22592525 -0.015976243
0.044424817 -0.13577434 0.026393583 -0.21451293 0.19902629 0.21872285 0.05592296 0.04870862
-0.1049443 0.08876553 -0.01193217 0.12761925 0.12152439 0.12584059 -0.21536587 0.111688
-0.12800412 0.14949878 0.23103565 -0.0125738755 -0.022430845 0.12235677 0.03310228 -0.17130835
-0.14248002 -0.20969488 0.07011327 -0.13182086 0.022407427 -0.19587831 -0.010677809 0.11290382
0.010325696 -0.13000914 -0.016839253 0.03294875 0.090266965 -0.14723097 0.0074675344 0.011499747
-0.20061828 -0.13249387 0.08577319 -0.0130168265 -0.0062377164 0.16871507 0.16765678 -0.12753133
-0.13141295 0.18584982 -0.17951885 0.0032365534 -0.07307793 0.12974796 -0.07653996 -0.054968227
-0.15468368 0.14891197 0.021869993 -0.013693344 0.117047444 0.09067866 0.14882393 -0.06801736
-0.0730366 0.023086747 0.06444948 0.008816551 0.058279034 0.10032597 -0.0006004508 -0.010953938
-0.071771346 -0.19774024 -0.15943317 -0.013153277 -0.17974214 -0.083287045 -0.10106716 0.01741766
0.05677128 0.11732344 0.052265085 -0.07393764 0.1021055 -0.02247139 0.08383202 -0.22254075
0.19976665 -0.03457266 0.07132248 0.0131433075 -0.13848802 0.17701684 0.03147391 0.043709807
0.08898604 -0.2426392 -0.13278954 -0.09722023 -0.053537603 0.1515399 0.109124616 -0.050982777
0.11655148 0.14944176 0.042858344 0.08001274 0.16383874 -0.07509093 0.075568356 -0.110411845
-0.22696292 0.25885606 -0.057415027 0.06252397 -0.2264539 0.03261278 -0.11809419 -0.09762167
-0.0731522 0.034527108 0.0960782 -0.14458346 0.060181286 0.055119876 -0.16126715 0.16999835
-0.0143652735 -0.046480406 -0.06406878 -0.05577264 -0.2265346 0.051778182 0.013896279 -0.10831606
0.14177237 0.22379044 -0.10063976 0.080372855 -0.10348166 -0.19411176 0.053869452 0.20401134
0.02635078 -0.14212404 0.16469738 -0.058190726 0.11271518 -0.033214785 -0.12157335 -0.106739864
0.041422535 -0.06883103 -0.055182256 -0.07200021 -0.010931355 0.15439735 0.029055182 -0.11475656
-0.010219267 -0.12854959 -0.06826063 -0.03845844 0.13297331 0.16026604 0.08860133 0.038314037
0.07340999 0.16827641 -0.076878265 0.01258698 0.23835914 -0.11135646 -0.010585581 -0.14290349
0.045855604 -0.12625849 -0.113040976 0.10789867 -0.2115285 0.16120008 0.14975205 -0.04652612
0.1630843 -0.087612495 0.034124345 -0.051710945 0.13412924 0.14111641 -0.14481635 0.014751063
0.056138296 -0.058001786 -0.1300381 -0.04298384 0.08353208 0.2262802 -0.036426328 0.02630682
0.092197455 -0.02175219 0.124312915 0.13699093 -0.030040888 -0.05875722 -0.03271166 0.040804703
-0.033657074 -0.01512056 -0.033278648 0.09233276 0.15124628 0.08870166 -0.09204405 -0.00929421
0.12875725 0.0022097612 0.044080023 -0.08562834 0.02784785 -0.09929484 0.09115449 0.08268695
0.15152651 0.027792124 0.07718149 -0.018875321 -0.05864744 -0.06008966 -0.003303309 -0.026967036

fc2.bias f4 [64]
00000000: ae34 91bc 06f5 863d ee5e 1b3d 3643 ad3d
00000010: 6331 4a3d ba43 a1bc 0e21 90bc 3ed7 f2bb
00000020: 463a 9f3b 35eb 3f3d 80c1 513d aa57 2e3d
00000030: 08a0 363d 9b5c 5a3d 6240 073d d77b 953c
00000040: f9e4 843d e30c f0bc 9bac cabb 5d86 11bb
00000050: 2517 c3ba 2329 333d c2ff db3c ed5a 06bc
00000060: c807 83bc 0459 173b c671 763d f919 563d
00000070: 823f 36bc b187 babc c583 60bb 2b28 473d
00000080: 2675 353d 7667 053c b7d2 523d f252 91bc
00000090: bb8a 353d 78f1 353c e0c0 afbb 8865 313c
000000a0: d852 083d 9c02 7c3c c3d4 443d d6cc 883c
000000b0: 11e1 3c3d 0103 6a3d a1d1 353d 09f7 623c
000000c0: 5fe2 403d 23c0 9f3c fe5b 663d d122 afbb
000000d0: 86ee de3d 7d89 3d3d e11b a43b 5003 843c
000000e0: 8000 c0bc 0990 723d 3cd5 2a3d 8951 9e3b
000000f0: 6143 5c3d b113 493d 77f2 8e3d 9115 2e3c
-0.017725315 0.06589703 0.03793233 0.08460085 0.049363505 -0.019685615 -0.017593887 -0.007410913
0.0048592417 0.04685517 0.051209927 0.04256407 0.04458621 0.05331097 0.033020385 0.018247528
0.064889856 -0.02930302 -0.006185127 -0.002220533 -0.0014884217 0.043740403 0.026855353 -0.008200389
-0.015994921 0.002309383 0.060167097 0.052270863 -0.01112354 -0.02276978 -0.0034258228 0.04862229
0.044301175 0.008142343 0.051470485 -0.017739747 0.044321757 0.011104934 -0.0053635687 0.01082743
0.03328213 0.0153814815 0.048054468 0.016699236 0.046113078 0.05713177 0.04438937 0.013852843
0.047090884 0.019500798 0.056240074 -0.0053447266 0.108853385 0.046273697 0.0050082062 0.01611486
-0.023437738 0.059219394 0.041707262 0.004831497 0.053775195 0.049091045 0.0697984 0.010625259

fc3.weight f4 [1, 64]
00000000: 51c7 c0be f992 76be 8cab 9ebe 0422 763e
00000010: 3cc8 9e3e 51b0 ecbd 54cb a7bd 1258 a6be
00000020: 7ecd 8ebe 0b7d 8f3d cbd5 383e 1b65 ee3d
00000030: 47da 963d 55e0 49be 9169 8e3e b9dc f2bd
00000040: d1b7 893e 50c4 07be 52e0 4d3e dcc8 0bbe
00000050: 6ec7 933e a4a6 8b3e dc36 b63d db5b a63e
00000060: f108 ec3d 2748 9dbe 3069 1c3e 26ec f8bd
00000070: 4056 7e3c 682d 14bd 535c 973e ea2d dfbd
00000080: 2320 a03e 5888 2dbe b467 08be 9c6f c7be
00000090: 799b afbe 3824 843e 8f76 1d3e c109 8d3e
000000a0: 9c32 713e 409a ad3e d336 2e3e 611f c83e
000000b0: eb4e 93be a150 1e3e e826 d4bd b8ec 3ebe
000000c0: 96ff 993d d9f5 303e 360e 86bd 1d2b 93be
000000d0: 3e1d 8abe a60d edbd 0a1c 813e 7fc7 7c3e
000000e0: baa6 80be 6c7e 5d3e 281f b3be d0f6 033e
000000f0: 0bb8 47be e5f6 143e a61c 5b3e 39da b33e
-0.37652066 -0.24079503 -0.30990255 0.24036413 0.31012142 -0.11557067 -0.08193079 -0.32489067
-0.27891153 0.07006272 0.18050306 0.11640378 0.07365852 -0.19714482 0.27814916 -0.11858506
0.26898053 -0.13258481 0.20105103 -0.1365084 0.2886309 0.27275574 0.08897182 0.32491955
0.11525143 -0.3071911 0.15274501 -0.12154417 0.015523493 -0.036176115 0.29562625 -0.10897429
0.31274518 -0.16946542 -0.1332081 -0.3895234 -0.34298304 0.25808883 0.15377258 0.27546504
0.23554462 0.33906746 0.17013101 0.3908644 -0.28771147 0.15460445 -0.10358983 -0.18644989
0.07519452 0.17281283 -0.06545679 -0.2874383 -0.26975435 -0.11574869 0.25216705 0.24685477
-0.25127202 0.21630257 -0.34984708 0.1288712 -0.195038 0.14547308 0.21397647 0.35127428
