run/PiDeeL_4layer.pth (torch_old, 74805 bytes, 7 tensors)

fc1.weight f4 [138, 37]
000000 6c f6 97 be d6 05 a5 be b1 da 21 3e 28 7b 5e 3a
       -0.29680192 -0.32231015 0.1580608 0.00084869796
000010 5c c3 d7 3d 01 72 25 be 7f 5b 4b be 6e b6 f0 3c
       0.10535309 -0.1615677 -0.19859122 0.029383864
000020 de 6d 2a 3e b3 86 89 be 78 49 24 3e 42 b0 aa 3d
       0.16643474 -0.2686058 0.16043651 0.083344
000030 45 51 d0 3d 0b 90 9a 3e ed 2e 41 be 63 71 81 ae
       0.10171751 0.3018802 -0.18865557 -5.8863824e-11
000040 2e 9b 82 be af 07 13 3e 82 4f 27 3e 0f cc 44 be
       -0.25509018 0.143584 0.16338924 -0.19218467
000050 48 7d 92 3e 1a 21 d3 3d ad 6a a0 3c b2 71 44 bb
       0.28611207 0.10309048 0.019582117 -0.0029974994
000060 f2 f9 02 be 78 01 71 bd f5 0c d3 3d d4 58 d3 bc
       -0.12790659 -0.05883929 0.10305206 -0.025799192
000070 44 e4 92 3d 5d 61 22 3e 1a 38 5e 3e 7e 50 9d be
       0.071724445 0.15857454 0.21701089 -0.30725473
000080 6d 6f 13 bd b7 45 b2 3e d4 c5 58 3e 1f 6a 36 bd
       -0.035994936 0.34818813 0.21169215 -0.0445348
000090 96 b2 54 be 1c f0 bc bd 79 32 16 be e9 ed 8f 3d
       -0.2077125 -0.09225485 -0.14667691 0.070278
0000a0 59 6a 6f be b5 c3 02 3e 1f 09 90 be b7 d7 48 bd
       -0.23380412 0.12769969 -0.2813196 -0.049033847
0000b0 9c ea 22 bd 92 1a ab be 35 5d cd 3d 32 a1 ac be
       -0.039774522 -0.3341871 0.100275435 -0.33716732
0000c0 76 59 45 3e 2b 8b 89 3d 9c 06 59 be 91 1d 90 3d
       0.19272408 0.06715997 -0.21193928 0.07036889
0000d0 e4 ec d4 3d cb ef 58 be c1 cf a2 3d 32 65 c0 bd
       0.10396746 -0.21185224 0.07949782 -0.093943015
0000e0 03 ad ca 3d 1d d6 b4 3e 65 d0 b0 3e a4 d9 b3 be
       0.098962806 0.35319605 0.34533992 -0.35126984
0000f0 d2 b1 45 3c 10 14 9b be b6 4a ad 3e a9 09 b1 3e
       0.012066321 -0.30288744 0.33846062 0.34577683
000100 3b 77 a0 be 31 6e 55 3e 1c 45 51 3d d5 af 1c 3d
       -0.31340966 0.20842816 0.0510913 0.038253624
000110 fe a9 a1 3e 50 1d 61 bd 69 da 8d 3d 6b 39 61 3e
       0.31575006 -0.054959595 0.06926424 0.2199456
000120 19 23 ad be 09 37 83 3e 59 b2 bd 3e bc 28 04 3e
       -0.3381584 0.25627926 0.3705013 0.12906164
000130 a9 73 98 3e 94 8a c6 be 92 d4 15 3e 26 4c e4 3d
       0.29775742 -0.38777602 0.1463187 0.11147337
000140 3d 2e b4 bd 7c 1c 70 3e 97 35 c6 3e 4d dd 6e 3e
       -0.08797882 0.23448366 0.3871276 0.23326607
000150 8b 1d 9e be 13 12 71 be dd cb 96 3e f3 dd 63 be
       -0.30881914 -0.23542051 0.2945241 -0.22252636
000160 33 a2 3e bd 2f fc a8 3e 8a 34 83 be 18 f4 ea bd
       -0.046541404 0.330049 -0.25626022 -0.114723384
000170 bd 15 6c be 63 72 20 bd 29 a5 ab 3e 5b ef 93 be
       -0.23055167 -0.039171588 0.33524445 -0.2889355
000180 0a c7 99 be 2a 0b 69 3e 2e 5d d3 3e ee fa 61 3e
       -0.30034667 0.22758165 0.41282028 0.22068378
000190 f3 01 2a a9 a8 8e 8b 2f ce 64 9d bd 61 38 a8 be
       -3.7749274e-14 2.5385316e-10 -0.076852426 -0.32855514
0001a0 89 1c 2f 3e 67 d4 ee 3d e7 fa 82 3e b7 9d ea 3c
       0.17100729 0.11661606 0.25582048 0.028639657
0001b0 06 d4 bd 3d 6e 7b bb bd ce dd 87 be 96 30 59 bc
       0.09268956 -0.09154402 -0.2653641 -0.013256213
0001c0 75 71 a8 be 57 e0 40 bc 03 2a 26 3d a4 e7 a0 3d
       -0.3289906 -0.011772237 0.04056741 0.07856682
0001d0 6a 8a 03 3e a6 f8 b3 3e 06 1a 73 3c 7f 8f 4d be
       0.1284577 0.3515064 0.014837747 -0.2007427
0001e0 d2 d6 09 3e 34 43 28 b5 84 9f 73 3d ff 9e 6d be
       0.13460854 -6.268267e-07 0.059478298 -0.23205183
0001f0 82 18 db 3c 60 c9 44 3e 2b 67 7e 3e e4 c7 33 3e
       0.026745085 0.19217443 0.24844043 0.17556721
000200 e7 dc 81 3d 54 72 f5 3d a7 4f 20 3e 4e 53 8f be
       0.06340962 0.11984697 0.15655385 -0.27993244
000210 4d b7 2d be 2d 1d 88 3e 92 23 8f 3d 64 c0 62 bd
       -0.16964455 0.2658476 0.069892064 -0.05535926
000220 8f 76 ab 3d fc 0c 58 be 0b 9f c5 3e 86 69 09 3d
       0.08372223 -0.21098703 0.38597903 0.0335479
000230 4b 5b 9d be 61 ba 69 3e d8 5a 4e 3d 70 d9 a0 3d
       -0.30733714 0.22825004 0.050379604 0.07853973
000240 43 99 a9 3e 41 27 26 3e e8 3f 24 be e7 cf 80 3d
       0.33124742 0.16225912 -0.16040003 0.06289654
000250 ed b2 0b 3e 22 65 81 be cc 59 6a 3e f4 fc 98 bd
       0.13642474 -0.2527247 0.22885817 -0.07470122
000260 80 88 90 bd 6f a3 bf b8 af cb ac 3e 34 d8 26 bc
       -0.07057285 -9.1380316e-05 0.33749148 -0.010183383
000270 47 03 c5 3d 02 72 41 3d f0 32 ab 3e 59 e2 16 3e
       0.09619766 0.047227867 0.334373 0.14734782
000280 b4 9f 7c 3d 81 c6 8d 30 4e 7b 0b 3e b3 e8 7f bd
       0.061675742 1.0315518e-09 0.13621256 -0.06247778
000290 74 79 8a 3d c8 2b b5 3a 1e de 51 3e 14 1b 82 3e
       0.067614466 0.0013822252 0.20494887 0.25411284
0002a0 b6 74 b4 3e e2 7f 49 be 76 63 03 3e 38 02 52 3e
       0.35245293 -0.1967769 0.1283091 0.20508659
0002b0 3a 16 39 28 dd 90 80 3e eb d6 98 3e f4 dc 80 be
       1.0274383e-14 0.25110522 0.2985147 -0.25168574
0002c0 40 54 64 be 2e 46 78 3a 7e 0a a4 3e d1 3a 8b 3e
       -0.22297764 0.0009470907 0.32039255 0.2719331
0002d0 18 f9 02 be bd 8b 86 3e 3f 66 a1 3e 54 96 9f be
       -0.12790334 0.26278487 0.3152332 -0.3116938
0002e0 7e e4 fa 3d 81 b7 bf bc 3a 6c b1 be cb e0 a9 3e
       0.12250613 -0.023402931 -0.34652883 0.33179316
0002f0 4a d5 88 3e d2 ca 94 be 2e 52 13 3e 45 fc 76 be
       0.26725227 -0.2906099 0.14386818 -0.2411967
000300 5c e7 87 be 2a 57 96 3e 03 4e 70 3d e2 26 b7 bc
       -0.265437 0.29363376 0.058668148 -0.022357408
000310 1d 3f de 3d 5f c4 40 be ab db 89 3d 18 95 1f be
       0.10851882 -0.1882491 0.067313515 -0.15584219
000320 bf 04 6b 3e 17 a8 c6 bb 03 1e 21 3e da f4 57 3e
       0.22951029 -0.0060625183 0.15734105 0.21089497
000330 ba c9 f2 bd c1 f5 ae 3d 1b 96 a5 3e 37 7c 90 be
       -0.118548825 0.085429676 0.32341084 -0.28219768
000340 17 a5 d5 3c 9b 63 78 3c d3 93 3a 3e a8 9f a8 3e
       0.026079698 0.015160467 0.18220453 0.32934308
000350 ff 86 98 be 4c e5 a6 be 4d ea 9d 3e 5e a0 85 39
       -0.29790494 -0.32596815 0.3084282 0.0002548722
000360 c4 69 d8 3d b0 0a 84 3c 48 b3 66 be 76 a9 85 3e
       0.10567048 0.016118377 -0.22529328 0.2610585
000370 7d 83 1d 3e 90 b3 c9 bd 2d e5 b6 bd f6 7d af 3d
       0.1538219 -0.09848702 -0.089304306 0.08568947
000380 bf 64 21 3e 07 9a 3f be 1d b0 51 be c9 99 f0 3d
       0.15761088 -0.187111 -0.20477338 0.11748082
000390 7d 07 86 be b3 2a e1 ae 8e 71 ae be ba 0a af 3d
       -0.26177588 -1.02394e-10 -0.3407101 0.08546968
0003a0 2e 55 77 be 0c 3a 3a 3e b0 dd 7d be 4f 63 27 39
       -0.24153587 0.18186206 -0.24791598 0.00015963356
0003b0 f1 54 7a bd 1f 9c 5f bd db a3 22 be c3 c1 c1 3d
       -0.061116163 -0.054592248 -0.15882818 0.09460785
0003c0 ae b8 a1 be 57 61 a4 be e4 52 b9 bd 50 2f f5 bd
       -0.31586212 -0.32105514 -0.09049013 -0.11971915
0003d0 78 8f 87 3d da 9e f3 bc 65 6e 34 3e 2e 31 58 be
       0.06619161 -0.029738832 0.17620237 -0.2111251
0003e0 c4 40 2c bd 5b de 77 be c0 51 82 3e fb 97 5f bc
       -0.042053953 -0.24205916 0.25452995 -0.013647075
0003f0 e6 40 58 bd 3b 4b f2 3d b8 d2 11 3e 92 8b 62 be
       -0.052796267 0.11830755 0.14240539 -0.22123554

fc1.bias f4 [138]
000000 a2 1a 1c 3d 23 19 42 3c 90 6a 1d 3d 98 82 25 3d
       0.038111337 0.011846813 0.038431704 0.040407747
000010 66 11 86 3c 99 a0 33 3d 65 dd 64 3d 14 97 96 3c
       0.016365718 0.04385433 0.0558752 0.018382587
000020 2c c0 87 bc d2 91 25 3d 71 a4 5f 3d 03 1b 26 3d
       -0.016571127 0.04042227 0.054600183 0.040553104
000030 57 99 34 3d 24 b3 dd bc 22 72 35 3d 0c c5 82 3d
       0.04409155 -0.02706296 0.0442983 0.0638524
000040 f7 37 25 3c f8 d6 f7 bc 88 ec 45 3d 58 66 e2 3c
       0.010084144 -0.030253872 0.048321277 0.027636692
000050 08 69 63 3c 21 8a 6e 3c 5f 4f c2 3c 72 97 69 3c
       0.013880022 0.0145593 0.023719488 0.014257299
000060 a4 12 85 3c b4 b8 1f 3d 41 82 21 3d d5 ef f9 bc
       0.01624424 0.038994506 0.03943086 -0.030509869
000070 1b 5f e6 3b 7f c9 d7 bc ab bd 2c 3d 3d 68 61 bb
       0.0070303804 -0.026341198 0.04217307 -0.0034394406
000080 12 2f 4c 3d c3 09 0d bc fa b9 2f 3a b1 b6 54 3d
       0.049849577 -0.008608284 0.0006703433 0.05193204
000090 3c 3b 4f 3d 30 4c 35 3d b9 9a 0c 3d 8b 01 a1 3c
       0.0505936 0.04426211 0.034327243 0.019654056
0000a0 1b 75 67 bc 98 88 88 bc 33 fa 3f 3c 02 b0 84 3d
       -0.014127041 -0.016666695 0.011717367 0.06478883
0000b0 d6 2f 19 3d 0f 4a 5d 3c 5c 64 37 bc 45 77 a7 3c
       0.037399136 0.0135064265 -0.011193361 0.020442614
0000c0 51 db 85 3c b8 e3 aa bc 25 dc a1 bb cb 83 3f 3d
       0.01633993 -0.020860538 -0.0049395734 0.046756547
0000d0 d9 2a 7f 3c a6 34 11 bc c7 0b 10 bb 6a 51 4c bb
       0.0155741805 -0.00886265 -0.0021979676 -0.0031176456
0000e0 4f a8 23 3d 91 43 44 3d 6f 3a 36 bb 84 25 f2 3a
       0.039955433 0.047916 -0.0027805825 0.0018474315
0000f0 e0 a3 d6 3c 7f 77 04 3d 77 b7 01 bc 98 91 8c 3c
       0.026201189 0.032340523 -0.007917277 0.017159268
000100 7a 7d 9a bc 7f b3 90 3c 4c 57 5c 3d 12 3b 59 3c
       -0.01885866 0.017663715 0.05379419 0.013258712
000110 66 33 3a 3d bb c9 5f 3d a3 07 f2 3c 1c 24 62 bc
       0.045459174 0.054635745 0.029544657 -0.013802554
000120 01 a3 f4 3c 78 03 06 3d 7c f0 0e 3d 74 ac d7 3c
       0.029862883 0.03271815 0.034897313 0.02632735
000130 0f 27 09 3d ff b0 ae 3c 3a a4 f0 3c 7c 3a 2d 3d
       0.033484515 0.021324633 0.029375184 0.042292103
000140 15 4b 46 3d b1 33 c0 3b 30 9b 6e 3d 94 2d 58 3d
       0.048411448 0.005865537 0.058253467 0.05277784
000150 c4 31 46 bc 60 5d ce 3c 7b 51 14 3d 1b cc 00 bd
       -0.012096826 0.025191009 0.03621052 -0.03144465
000160 ea bf 0e 3d e4 ed 54 3a 95 d4 65 3d 20 f1 24 3d
       0.034850992 0.00081226067 0.056110937 0.040269017
000170 71 24 3c 3d 0c f2 0f 3d f3 13 5b 3c 15 bc ce 3c
       0.04593319 0.035142943 0.0133714555 0.025236169
000180 95 c6 fc 3c 64 a6 e7 3c 65 84 9c 3c 6c 8b 86 3a
       0.03085641 0.028277583 0.0191061 0.001026494
000190 9e 80 1e 3d 4d 65 b4 3c 3b b5 3f 3d f7 a5 9c 3c
       0.038696878 0.02202096 0.046803694 0.019122107
0001a0 15 4b 07 3d 42 04 de 3c 50 d0 8b bc 9b ed fe 3b
       0.03303059 0.02710164 -0.017067105 0.0077797896
0001b0 84 a6 fb 3c d0 47 12 3c c0 43 b7 3c 04 0c ad 3c
       0.03071905 0.008928254 0.022371173 0.021123894
0001c0 40 8f 46 3d 96 5a 55 3d c6 e2 fa 3c ff 65 58 3d
       0.048476458 0.052088343 0.030625712 0.052831646
0001d0 08 a9 2f 3c 64 41 02 3d 70 5f f1 3c 79 48 c6 3c
       0.0107214525 0.031800643 0.029464453 0.02420448
0001e0 45 2c ad 3c d5 a5 6b 3d fa 15 3b 3d 44 ce 1e 3d
       0.021139273 0.057531197 0.045675255 0.03877093
0001f0 78 bf 84 3d ad 27 68 3d 15 a2 2d 3d de 57 48 bc
       0.06481832 0.056678463 0.0423909 -0.01222798
000200 77 c3 3c 3d 48 08 90 bc 53 0d 57 3d db dd 20 3d
       0.046084847 -0.017582074 0.05250294 0.039274078
000210 df dd 5b 3c 27 1d 36 bc cb 30 83 3c f2 49 c9 3b
       0.013419597 -0.011115349 0.016014477 0.006142848
000220 e5 89 1c 3d a5 b2 c7 3b
       0.038217444 0.006094294

fc2.weight f4 [64, 138]
000000 e2 f4 c5 3c c1 27 1e be 19 b6 01 3d bc 8e d8 bd
       0.02416462 -0.15444852 0.031667802 -0.105740994
000010 0f 7a 9e bd ad c8 29 be dd fa fe bd 0c ed 3e bb
       -0.077381246 -0.16580458 -0.12450192 -0.002913299
000020 32 0f b8 bd 0e 50 89 bc 1e 14 d1 3d 6c 28 0c 3e
       -0.08987273 -0.016761806 0.10208915 0.13687295
000030 74 44 29 bd cb 15 1a be 84 f0 e8 bd 5a d5 bd bb
       -0.041325048 -0.15047376 -0.11374 -0.0057932558
000040 0d 54 b2 3c 4b 76 a7 bd 21 0e a9 bd 55 b5 16 be
       0.021768594 -0.081768595 -0.08254648 -0.1471761
000050 ea e4 1a 3d ee f5 20 3d 9a 1c 4b 3e 27 54 b2 3d
       0.037815966 0.039297037 0.1983513 0.08707457
000060 dc 5e e3 3d 43 3d 5d bd e9 7e d2 bd 2c ca 10 3e
       0.11102077 -0.0540135 -0.102781124 0.14139622
000070 bd bc d8 bc 84 e7 2e be 99 fc d4 3c 81 25 05 3e
       -0.026457185 -0.17080504 0.025999354 0.13002588
000080 c4 4e 76 3c bb 7b 55 3d 3b 57 19 3e c3 9e 54 3e
       0.015033428 0.05211995 0.14974682 0.20763688
000090 3d df 17 be 4c ed d7 3d 80 eb 03 3d 15 27 b2 3d
       -0.14831252 0.10543308 0.032207012 0.086988606
0000a0 92 2f ba 3b 61 f4 0c bd 8d 77 2a 3e ea c5 0e be
       0.0056819404 -0.034412745 0.16647168 -0.13942686
0000b0 f3 c2 9f bd ce 02 44 3e ed 52 8a 3c b0 77 f6 bd
       -0.078008555 0.19141695 0.016885245 -0.12034547
0000c0 38 8e 3b 3e 06 3a 00 bc 36 e0 05 bd 44 14 db 3d
       0.18315971 -0.007826334 -0.032684527 0.10697225
0000d0 55 59 0a be ef 12 3d 3e a5 38 0f 3e 7f bd cf 3d
       -0.1351064 0.18464254 0.13986452 0.101435654
0000e0 ee 9b e2 bd e3 81 06 bd 0f 5c 68 3d 1c 2b c0 bd
       -0.110648975 -0.032838713 0.05672842 -0.093832225
0000f0 cb cf fe bd fa 3b f8 3d 82 74 9c bc a9 62 fc 3d
       -0.12441977 0.121208146 -0.019098524 0.123235054
000100 48 66 fe bd a3 0d 08 3e 4b c9 39 bd c9 df f2 bd
       -0.12421852 0.13286452 -0.045357984 -0.1185909
000110 cb f7 6a 3c 84 81 22 be 62 5d 6d 3e c7 6b 43 3d
       0.014341305 -0.15869719 0.23180154 0.047710206
000120 37 72 27 3e 13 7a 3a 3d e4 29 1b 3e b6 4a 22 3e
       0.16352163 0.045526575 0.15152699 0.15848812
000130 b4 e3 c5 3c fa 5d 45 3d 6f d6 ca 3d 69 4f b3 bc
       0.024156429 0.048185326 0.09904181 -0.021888452
000140 7a 01 a4 3d fc a4 e4 bd 68 49 0e be 7e db 15 3e
       0.08008094 -0.11164281 -0.1389519 0.14634511
000150 2b 42 b9 3c 7b 4c 8f bd 96 7a 8f bd 1d ea 1b 3e
       0.02261456 -0.06997009 -0.07005803 0.15226026
000160 ea ef 6a bd 4d 3a 15 3e 6e 9b 33 3d aa ce 84 3d
       -0.057357706 0.14573021 0.0438494 0.064847305
000170 ca 1b 15 3e ae fd ed bd 2f 8e 04 bd 79 bb 20 be
       0.14561382 -0.11620651 -0.03236216 -0.15696515
000180 c0 ab 2a 3d 7a d1 4a bd 37 59 05 3c 63 c5 23 3c
       0.0416677 -0.04951618 0.008138946 0.009995791
000190 29 9d 1e be 07 a6 dc bc 25 fb 12 be 0c 73 ab bd
       -0.1548964 -0.026934637 -0.14353617 -0.08371553
0001a0 ac 23 81 3d fe 07 61 be 99 a3 f5 bd 8c f4 23 be
       0.06305632 -0.21975705 -0.119940944 -0.16011256
0001b0 df 63 08 3e a9 fe a4 3b 44 70 28 be 9c 59 11 3d
       0.13319348 0.0050352407 -0.16449076 0.03548585
0001c0 33 48 31 3e 9b 15 ab bd b7 5e 09 3d 41 b6 26 3e
       0.17312698 -0.0835373 0.033537593 0.16280462
0001d0 f4 1f 30 3e 3d 1c f3 bb 4e f3 0a bd ba 1c bb bc
       0.17199689 -0.0074191377 -0.03392344 -0.022840846
0001e0 49 8b 26 bd de c4 00 3e f4 81 24 bd 63 30 9c bc
       -0.040660176 0.12575099 -0.040162995 -0.019066041
0001f0 b3 43 27 3c 50 d3 01 3e df dc 1f 3e a7 1d 9d 3c
       0.010209012 0.12678266 0.156116 0.019179178
000200 e1 a7 2d 3d d7 43 99 bd 8d 6e c7 bc ec 23 88 3d
       0.04239643 -0.074836425 -0.024344707 0.066474766
000210 28 a2 b7 3d 25 ed 29 be 95 17 ab bc 3c 4e da 3b
       0.08966476 -0.1659437 -0.020885268 0.0066621583
000220 45 ba b8 bd 63 d7 e9 3d 6e 16 1d 3e d6 65 1f be
       -0.09019903 0.11418035 0.15340587 -0.15566191
000230 9f 54 a5 bd 08 b4 1d bd b6 f0 cf bd c0 a5 2b be
       -0.08072781 -0.03850177 -0.10153334 -0.16762447
000240 c5 5a 23 be 85 eb 23 be 5b 78 a8 bd 6a 98 dd 3d
       -0.15952595 -0.16007812 -0.08226081 0.10820086
000250 18 e8 b8 3c 0c 55 38 be b5 65 59 3d 9f 5b 45 3e
       0.022571608 -0.18001193 0.05307551 0.19273232
000260 8d 1b 0d 3e af b1 76 bd af 41 db bd 16 91 18 3e
       0.13780041 -0.060228046 -0.107058875 0.14899096
000270 22 26 18 bd 32 a0 2a 3d 4b 86 04 be f0 dc e8 bc
       -0.03714574 0.04165668 -0.12941854 -0.028425664
000280 84 3b de 3d f3 62 4f be 14 6d 63 bd e4 84 9c bd
       0.108511955 -0.2025259 -0.055523947 -0.076425344
000290 53 fe d8 3d c8 fb dc 3d 8e 75 0b be 82 b1 35 3e
       0.105953835 0.10790211 -0.13619062 0.17743495
0002a0 1e 95 00 3c c7 06 10 be e0 85 12 3e 99 70 37 ba
       0.007848052 -0.14065085 0.14308882 -0.00069976744
0002b0 be db 0b bd a8 b1 91 3c 14 5b d3 3d 94 bb 30 3e
       -0.03414511 0.017784908 0.10320106 0.17259055
0002c0 36 99 96 3b 2c 8d 54 be 58 a9 27 be 45 07 77 bd
       0.004595901 -0.20756978 -0.16373193 -0.060309667
0002d0 d1 4a f2 bd 3b 0f 94 bd 63 f0 7c 3d 07 27 3e be
       -0.11830676 -0.072294675 0.06175269 -0.18569575
0002e0 52 5d bb 3d f4 c5 25 3e 5a 81 0f be ba 6c 32 be
       0.09148659 0.16188794 -0.14014187 -0.17424288
0002f0 7b fa e7 3d 08 2e e0 bc 72 63 c8 3c dd 54 26 3e
       0.11327072 -0.0273657 0.024461482 0.1624331
000300 70 65 9b bd 99 de 3d 3d fb 44 ab bc be 7e 9c 3d
       -0.07587707 0.046354864 -0.020906916 0.07641362
000310 27 c3 23 be 89 fb 27 3e 60 a4 26 be 53 b1 63 bc
       -0.15992413 0.16404547 -0.16273642 -0.013897258
000320 9c 73 f3 3d 08 da 3e be 39 c0 d5 3d a4 24 f6 3d
       0.11887285 -0.1863786 0.10437054 0.120187074
000330 90 05 14 bc cb c5 20 3e 7b 5e 32 3d 5a d9 0e be
       -0.009034529 0.15700452 0.043547135 -0.139501
000340 15 f4 12 3e 07 f3 22 bd 56 28 8b bb e5 bc 39 bd
       0.14350922 -0.03978255 -0.004246752 -0.04534616
000350 ba 27 eb 3c b9 2e 20 be b5 ef a9 bd 38 b0 2b be
       0.028705467 -0.15642823 -0.082976736 -0.16766441
000360 8b 47 cf 3d 2f a4 45 bd 5b 95 2e 3e 0f 7c 24 3e
       0.101210676 -0.04825228 0.17049162 0.1606295
000370 67 2b 0a 3e fd f4 e8 3d fe e9 95 bc f1 34 90 3d
       0.13493119 0.11374853 -0.018300053 0.07041348
000380 cf 2f 86 3d 35 22 f2 bc cc 8a f9 bd f3 b4 05 bd
       0.065520875 -0.029557327 -0.121846765 -0.03264327
000390 1f 0b 03 be b1 d0 0a 3e 0e 76 a9 3d 56 e7 10 be
       -0.12797211 0.13556172 0.0827447 -0.14150748
0003a0 ca 1a ea 3d 8e 79 f9 3d 80 21 19 be c8 8d 01 be
       0.11430891 0.12181388 -0.14954185 -0.12651742
0003b0 0c 85 0d be 7a c6 31 3e 7d e6 04 bc 69 70 82 ba
       -0.13820285 0.17360869 -0.008111593 -0.0009951714
0003c0 69 ae 2e 3e 06 e1 8c bd e1 4d 25 bd 62 54 2a be
       0.1705872 -0.06878857 -0.040357474 -0.16633752
0003d0 22 bf 65 3c 96 37 f3 3d b3 38 90 bd 6d 49 77 bd
       0.01402262 0.118758366 -0.070420645 -0.06037276
0003e0 56 5b b3 bd 2a 77 03 3d 25 b3 dc 3d eb b3 2c be
       -0.08757655 0.032096066 0.107763566 -0.16865508
0003f0 3d ef 28 3e a7 04 07 3e 0d cb 4c be 7e 44 ae bd
       0.16497512 0.13185368 -0.19999333 -0.085091576

fc2.bias f4 [64]
000000 1a 2b c1 3a a5 29 e1 ba 69 c8 d4 3c 22 c6 54 3c
       0.0014737577 -0.0017178549 0.02597447 0.012986692
000010 af f8 23 bb 81 3d 3a 3d 28 53 e6 3c d5 6b 29 3d
       -0.0025020053 0.04546881 0.028115824 0.041362602
000020 8a 58 aa bc c4 64 98 3c e6 eb a5 3c 73 88 f4 3c
       -0.020794172 0.018602736 0.020254087 0.02985022
000030 36 f6 19 3d 46 34 25 3d 23 0b 0d 3d 44 92 61 3d
       0.03758832 0.040333055 0.03443445 0.05507113
000040 a6 57 ac ba 47 a1 1a bc a6 d1 b1 3c 75 90 20 bc
       -0.001314868 -0.009437866 0.021706413 -0.009800066
000050 30 3b 0a 3d 9a 0a 34 bc 9b 59 91 bc 74 6f 20 bc
       0.03374785 -0.010988856 -0.017742923 -0.0097921975
000060 53 1f c4 3c 78 ee 23 bc e8 73 53 bc 28 27 2c 3d
       0.023940718 -0.010005586 -0.012906052 0.04202953
000070 71 dc d9 3c 6d f4 d8 3c 40 57 3f 3c 80 28 c1 ba
       0.026594372 0.026483739 0.011678517 -0.0014736801
000080 41 8c c0 3c 84 f7 55 3d 92 de 32 3b 54 6a 2a bc
       0.023504378 0.052238002 0.0027293307 -0.010401327
000090 90 b7 02 3d 5b 86 dd bb e4 de 86 bc c2 1c b1 3a
       0.03191334 -0.006760401 -0.016463704 0.0013512599
0000a0 ad f6 23 3d b5 72 73 3d 20 71 45 bc ac 09 89 3c
       0.04003017 0.059435565 -0.012050897 0.016728245
0000b0 d8 97 f4 3c 91 32 31 3d 16 4b da bc a8 85 85 3c
       0.029857561 0.043261115 -0.026647132 0.016299084
0000c0 6f a8 6e 3b db 39 06 3d f7 6a 0c 3d 49 cc ac 3c
       0.0036416312 0.03277002 0.034281697 0.021093505
0000d0 cb e8 3c bc 7b a8 cd 3c ad 56 18 39 47 2c db 3c
       -0.011530112 0.025104752 0.00014528139 0.026754512
0000e0 16 7e ec 3c 89 77 44 3c 72 63 0a 2f 03 b6 b7 3c
       0.028868716 0.01199139 1.2586357e-10 0.022425657
0000f0 67 12 a8 b7 d9 bb b2 3c 7c 90 eb 3b 72 63 0a 2f
       -2.003573e-05 0.021818088 0.0071888547 1.2586357e-10

fc3.weight f4 [64, 64]
000000 31 55 be 3d 79 af cb 3d 6c 12 8a 3c ee 3f d0 bd
       0.09293593 0.09945578 0.016854487 -0.101684436
000010 12 82 75 be 4e 59 c2 3c 01 58 63 be b4 47 6a 3e
       -0.23975399 0.023724224 -0.2220154 0.22878915
000020 ff 56 ed bd 89 89 89 bd 9c 8c 4e be 5d 9f f4 3d
       -0.11588859 -0.06715686 -0.20170826 0.11944459
000030 f5 cf b4 bd ad 50 2e 3e b7 42 62 be c4 16 f7 bd
       -0.08828727 0.17022963 -0.22095762 -0.12064889
000040 c3 79 68 be 21 ee 8f bd d1 cd 83 be 35 0c c2 bd
       -0.22702698 -0.07027841 -0.25742963 -0.094749846
000050 75 f1 e8 bd f4 4c 62 bd cc 5e 6e be 97 1f 45 3e
       -0.11374179 -0.05524917 -0.2327835 0.19250332
000060 5d 2e 49 3e 49 13 a2 bd ad d3 d8 bc aa cd 65 3e
       0.19646592 -0.079138346 -0.026468122 0.22441736
000070 26 ac fe 3d 3a a6 79 be ea db f5 3d 17 77 b6 3d
       0.124351785 -0.24379817 0.12004836 0.08909433
000080 0b 3d 1b be 5d b5 6d 3e 64 ae 64 3e 9b f9 ea 3b
       -0.15160005 0.23213716 0.2233215 0.0071708686
000090 34 fb 6a be a4 71 83 3e 24 9b ec bd 02 bb 3b be
       -0.22947389 0.25672638 -0.11553028 -0.18333057
0000a0 12 aa 47 be c1 1e 97 3d 18 e2 6a 3c 7b b4 c0 3c
       -0.1949847 0.07378913 0.0143361315 0.02352356
0000b0 79 7c 68 be bc 54 08 be 98 6b 25 bd d4 13 51 be
       -0.22703733 -0.13313574 -0.040385813 -0.2041772
0000c0 7f a3 9b bc 91 85 1f be 5f 5b cc 3d 68 3c c0 bd
       -0.01899886 -0.15578295 0.09978365 -0.093865216
0000d0 b0 72 58 3e ec e4 29 3e 9a ad a7 3c 72 12 19 be
       0.211375 0.16591233 0.020468522 -0.14948443
0000e0 a4 36 39 3e ec 48 bd bd 67 15 85 3e db a2 98 bd
       0.1808725 -0.09242424 0.2599289 -0.07452937
0000f0 4a ab 80 be 34 9d 1f bc ac 3e 20 3e f7 4d 35 bc
       -0.25130683 -0.00974207 0.15648907 -0.011065952
000100 de 01 35 3d e3 d2 f1 3d 31 06 43 be 0b ee 19 3e
       0.044191234 0.118078016 -0.1904533 0.15032212
000110 9b e5 2c be c0 56 d2 3c bd 87 82 be 75 bc a6 bc
       -0.16884463 0.025676131 -0.25494185 -0.020353535
000120 22 f6 de 3b a5 36 e0 3d b9 cb 66 bd 3b 8a 82 3e
       0.0068042437 0.109479226 -0.05634663 0.25496086
000130 ea 66 27 3e 88 02 fc 3d a2 52 88 3e 2b 4d 3e 3e
       0.16347852 0.1230517 0.26625544 0.18584125
000140 1e 50 b4 3d 9e a3 6b be 33 c1 1c be 35 1a 27 be
       0.08804344 -0.23011634 -0.15308075 -0.16318591
000150 86 46 85 3e 1d f4 30 bb 6c 72 5c be 3f 1e 9e 3d
       0.26030368 -0.0027000972 -0.21528023 0.07720613
000160 a7 6c 05 be 19 00 5c be fe c4 9c 3e 41 08 b6 3d
       -0.13029729 -0.21484412 0.30619043 0.08888293
000170 bf 2b 89 3e 18 86 42 3e 71 09 9b bd 54 d7 bf bc
       0.26791188 0.18996465 -0.0757016 -0.023418106
000180 73 c1 1d be 32 c6 4e be ab 6b 9e bd 3e 3a 27 3e
       -0.15405826 -0.20192793 -0.0773538 0.16330811
000190 65 eb 76 3e 3c 43 b3 bd ac dc 7e be 1d 2b 45 be
       0.24113233 -0.08753058 -0.24888867 -0.19254728
0001a0 13 84 8d be 4a 8b 87 3d a7 8d 12 3e 63 ba 3f 3e
       -0.27639827 0.06618364 0.14311849 0.18723445
0001b0 f5 ce 0d be 2b 6a af bd 82 ab 74 3e fb 3c 73 be
       -0.13848479 -0.08565172 0.2389355 -0.23753731
0001c0 93 68 07 bb 95 27 72 3e e7 dc b9 3d b5 a1 8f be
       -0.0020661696 0.23647912 0.09075337 -0.2805306
0001d0 d8 6f 41 be 26 62 cb 3d 26 0a a8 3d 1f a0 04 be
       -0.18890321 0.0993083 0.08205061 -0.12951706
0001e0 32 e5 a4 3e 3a 79 85 3e 4b f2 60 be a1 5b 86 3e
       0.32206112 0.2606905 -0.21967427 0.26241782
0001f0 67 06 fc 3d b6 ed 89 3e 13 cd 4f be 3c 93 fd bd
       0.12305909 0.26939172 -0.20293073 -0.12381598
000200 d1 99 14 3e de b4 fc bd 16 88 7e 3e be a1 70 3e
       0.14511801 -0.12339185 0.248566 0.234992
000210 d5 b1 21 be bc ea 2d 3b 22 95 4d 3e 16 81 92 bd
       -0.15790494 0.0026537618 0.20076421 -0.071535274
000220 90 04 dd 3c 8d d0 20 3e f2 2c af bb 6a 8c 5a 3e
       0.026979715 0.15704556 -0.005345934 0.21342626
000230 15 a4 62 be 23 24 00 3e 0a 96 34 3e 1d 8b 8a be
       -0.22132905 0.12513785 0.1763536 -0.2705926
000240 b8 28 e2 bd 23 2f 54 bd 30 a7 6e be bc 52 a1 bc
       -0.11042923 -0.051802766 -0.23305964 -0.019692771
000250 61 7c 0c 3e 41 5b 27 3e ee 03 7a bd 03 69 a4 3d
       0.13719322 0.16343404 -0.061038904 0.08027842
000260 ca dc fa bd dc d3 96 3d e3 67 40 3e 8c 09 5f 3e
       -0.122491434 0.07364628 0.1878963 0.21780986
000270 bf 25 72 be 2f e5 84 be 2f b4 db bd f7 51 e0 bd
       -0.23647211 -0.25956103 -0.10727727 -0.109531336
000280 76 3a f7 bd 74 07 a3 be fd 6c 27 3e 3d 71 0f 3e
       -0.120716974 -0.31841624 0.1635017 0.1400804
000290 52 db 48 be 90 7a 5d be 24 64 7a 3e e9 44 20 3e
       -0.19614914 -0.21628785 0.24452263 0.15651287
0002a0 ba 74 a6 3d 9b d7 43 3e 61 2f f2 3b 68 ad 59 be
       0.081277326 0.19125216 0.007390902 -0.21257555
0002b0 51 ab 83 bb 32 e8 08 3e a0 cd 6d 3e 97 c5 e3 3c
       -0.0040182252 0.13369825 0.23222971 0.02780418
0002c0 a5 5d 85 be 98 af 4a be cb 98 0e 3e 5c a1 a6 3d
       -0.26048008 -0.19793546 0.13925473 0.081362456
0002d0 56 32 16 bb 6b 20 92 3e e6 f4 bc bd cc fb 7b be
       -0.0022918186 0.28540358 -0.09226398 -0.24607772
0002e0 4f 16 5d be 79 68 2c 3e 16 e2 1e bd 9d c3 61 be
       -0.21590541 0.16836728 -0.03878983 -0.22047277
0002f0 dd c0 0a 3e 58 60 ac bd 4e 60 21 3e 1c 78 45 3c
       0.13550134 -0.084168136 0.15759394 0.012052562
000300 86 f7 1d 3e 2b a2 0c 3e 67 0f cf bd 80 4c 6c be
       0.15426454 0.13733737 -0.1011036 -0.23076057
000310 9a 61 88 3e a4 3e bd 3c 25 93 59 be b4 4a 41 be
       0.26636964 0.023101158 -0.21247537 -0.18876153
000320 20 90 d2 bd eb f3 0f 3d 94 28 27 be 28 7d d2 bb
       -0.10281396 0.035144728 -0.16324073 -0.006423611
000330 67 2f 48 3e 89 16 0c 3d b2 b0 e7 bd 8c 36 4a 3e
       0.19549333 0.03420118 -0.11312999 0.1974737
000340 08 53 d3 3c 59 12 f0 bc fe bd 4a be ed 75 02 3e
       0.025796428 -0.029305624 -0.19799039 0.12740298
000350 26 60 6d be 99 89 17 be a5 29 22 be d3 5e a3 3d
       -0.23181209 -0.14798583 -0.15836199 0.07977071
000360 51 cd dd 3d e4 6f 9c bc 78 1b 15 be 87 e2 81 be
       0.108301766 -0.019096322 -0.1456126 -0.2536814
000370 5c 2f 74 be 7c 10 21 3d 81 b1 30 be e8 97 19 3c
       -0.23846191 0.03932236 -0.17255212 0.009374596
000380 2d a9 d4 3d d4 ac 40 3e c7 3d 59 be 72 2b 8c 3d
       0.1038383 0.18815929 -0.21214972 0.06844224
000390 d7 be 15 3e 8c 35 8d bd cf 68 b4 3d 06 bb 6d be
       0.14623581 -0.06894979 0.08809053 -0.23215875
0003a0 d8 a6 8b be 46 cf 86 3d 6c 01 ec bd 80 1f 97 bd
       -0.2727573 0.06582503 -0.11523709 -0.07379055
0003b0 42 9a ac bd e6 78 47 3d d5 02 0d 3e 52 8f 93 bd
       -0.0842786 0.048699282 0.13770612 -0.072050706
0003c0 3a fb 1f 3d 1e 3c 5f be b4 11 82 3e cd 07 b8 bc
       0.039057948 -0.21800277 0.2540413 -0.022464657
0003d0 90 3c d8 bd d1 1a 87 3e 8c 37 0c be 85 ac 43 3e
       -0.105584264 0.26387647 -0.13693064 0.1910878
0003e0 15 ec a8 3e 2d d7 fc 3d b1 7c 14 be 7b 88 2d 3e
       0.32992616 0.12345729 -0.14500691 0.16946594
0003f0 58 6b 53 bc bb b5 79 3e 56 9a 42 3e 66 a6 0e be
       -0.012904011 0.24385731 0.19004187 -0.13930663

fc3.bias f4 [64]
000000 a5 c8 28 39 62 1b 44 3d 4b b3 36 bc 22 8c 50 3d
       0.00016096474 0.047877677 -0.011151145 0.05091489
000010 24 bd 36 3d 6b 5d a1 bc d7 90 d7 3c 32 54 94 ba
       0.044613972 -0.019697865 0.026314182 -0.0011316596
000020 95 33 06 3d d4 4b 03 3d 76 f5 84 bc 5f 64 5b 3d
       0.032764036 0.032054737 -0.016230326 0.05356252
000030 68 55 81 3d 13 aa 12 3d 14 da fb 3c de 58 1e 3d
       0.06315118 0.035806727 0.030743636 0.03865897
000040 b8 31 0c 3b 9e bc 02 3d ff 74 55 3d 61 fa c5 3c
       0.002139194 0.03191816 0.05211353 0.024167242
000050 d2 22 cd 3b 0e 08 c7 bc 05 0d 40 3d 9a af 16 bd
       0.0062602544 -0.024295833 0.046887416 -0.03678856
000060 8d d5 04 3c 77 e8 c0 3c 07 f0 cf bb 29 ae 49 3d
       0.008107555 0.023548348 -0.006345752 0.049238358
000070 c3 d0 60 3d 1a 03 40 3d a7 da 88 3b 57 88 63 3d
       0.05488659 0.046877958 0.004176456 0.055549946
000080 2d 6d 75 3c be 3c eb 3c 5e 4b d0 bc 33 84 a0 bc
       0.014979643 0.028715488 -0.025426563 -0.019594287
000090 53 6c 15 3d d6 01 89 3c 0d c9 64 3c 9c cf 73 3d
       0.03648026 0.016724508 0.01396395 0.059524164
0000a0 09 f5 45 3d 95 1f b2 bb 35 32 1f 3b ce 23 26 3b
       0.048329387 -0.005435894 0.00242914 0.002535093
0000b0 ba ba 3c bc 0f 9f b4 3c 8c 8a a1 bb 93 b4 c2 b6
       -0.011519128 0.022048501 -0.004929846 -5.802672e-06
0000c0 35 52 c8 3c 8d 56 5a 3d 16 c0 25 3d 64 7c 14 3d
       0.024453262 0.053305198 0.04046639 0.03625144
0000d0 37 e9 01 3c d7 83 c2 38 fc a8 b7 bb 2b cf 79 3c
       0.007929138 9.275198e-05 -0.0056048613 0.015247147
0000e0 f7 20 7c 3c 38 5a 89 3c 30 ec 07 3d 90 d4 5c 3c
       0.015388719 0.016766652 0.03318423 0.013478413
0000f0 f3 ea 87 3b ce d8 35 b6 9f 5d 3f bc e3 57 94 3c
       0.004147881 -2.7097299e-06 -0.011680036 0.018108314

fc4.weight f4 [1, 64]
000000 58 fc fd bd 03 ca 6a 3e 24 51 3f 3e 20 cb 4f 3e
       -0.124016464 0.22928624 0.18683296 0.2029233
000010 a5 d8 8e be 33 66 f4 3d fb 2b 01 3e 9d 89 30 3e
       -0.27899662 0.119335555 0.12614433 0.17239995
000020 83 85 5d 3e 38 60 99 be 53 87 4e be c8 3f 87 3e
       0.21632962 -0.29956222 -0.2016881 0.2641585
000030 c7 f8 3f be 18 78 88 be 70 fa 63 3e ea 66 a1 be
       -0.18747245 -0.26654124 0.22263503 -0.3152383
000040 c0 ad 96 3e d6 da 31 3e 42 84 b9 be 28 e1 39 be
       0.29429436 0.17368636 -0.36233717 -0.18152297
000050 c3 9e a4 be 34 16 0f be 3f 29 1e 3e 8a 75 7e be
       -0.32152376 -0.13973314 0.15445422 -0.24849525
000060 ba 97 b0 3d 6a 67 80 be 2f c4 55 3e 1e 69 f2 bd
       0.086226895 -0.250789 0.2087562 -0.11836456
000070 e2 3f ab be 09 07 a3 be 69 d3 f9 3d fc 22 01 3e
       -0.33447176 -0.31841305 0.121985264 0.12611002
000080 87 26 55 be 17 32 2c 3e 4c a4 6e be de ee 24 3e
       -0.20815478 0.16815983 -0.23304862 0.16106746
000090 e5 ba 87 be 73 02 7d 3d ad c6 0b 3e 77 99 9b be
       -0.26509777 0.061769914 0.13650008 -0.30390522
0000a0 48 9b 1f be af b2 f0 bd 86 af 7f 3e f7 43 c2 3d
       -0.15586579 -0.11752831 0.249693 0.094856195
0000b0 87 87 78 3e d0 f4 c0 bd ba 61 a8 3d e5 8e 73 3e
       0.2427045 -0.09421694 0.08221765 0.23784979
0000c0 f4 a6 ad 3e 48 16 33 3e ad a9 0d 3e 1e 27 07 3e
       0.33916438 0.17488968 0.13834257 0.13198516
0000d0 f6 e2 95 be 9b 98 44 bc 80 db fd 3c 9f 44 b7 3e
       -0.2927472 -0.011999275 0.030988455 0.3579454
0000e0 b6 4d ca bd eb 7c 3b be 90 b1 96 be 91 77 5f be
       -0.098781034 -0.18309371 -0.29432344 -0.21822955
0000f0 11 4a 5e bd c2 00 e3 3d 0d 3c 05 3e 07 74 82 3e
       -0.054269854 0.11084129 0.13011189 0.25479147
